backend: tensorflow
class_name: Sequential
config:
- class_name: Conv2D
  config:
    activation: relu
    activity_regularizer: null
    batch_input_shape: !!python/tuple [null, 32, 32, 3]
    bias_constraint: null
    bias_initializer:
      class_name: Zeros
      config: {}
    bias_regularizer: null
    data_format: channels_last
    dilation_rate: &id001 !!python/tuple [1, 1]
    dtype: float32
    filters: 32
    kernel_constraint: null
    kernel_initializer:
      class_name: VarianceScaling
      config: {distribution: uniform, mode: fan_avg, scale: 1.0, seed: null}
    kernel_regularizer: null
    kernel_size: !!python/tuple [3, 3]
    name: conv2d_7
    padding: valid
    strides: &id002 !!python/tuple [1, 1]
    trainable: true
    use_bias: true
- class_name: Conv2D
  config:
    activation: relu
    activity_regularizer: null
    bias_constraint: null
    bias_initializer:
      class_name: Zeros
      config: {}
    bias_regularizer: null
    data_format: channels_last
    dilation_rate: *id001
    filters: 64
    kernel_constraint: null
    kernel_initializer:
      class_name: VarianceScaling
      config: {distribution: uniform, mode: fan_avg, scale: 1.0, seed: null}
    kernel_regularizer: null
    kernel_size: !!python/tuple [3, 3]
    name: conv2d_8
    padding: valid
    strides: *id002
    trainable: true
    use_bias: true
- class_name: MaxPooling2D
  config:
    data_format: channels_last
    name: max_pooling2d_4
    padding: valid
    pool_size: &id003 !!python/tuple [2, 2]
    strides: *id003
    trainable: true
- class_name: Dropout
  config: {name: dropout_7, noise_shape: null, rate: 0.25, seed: null, trainable: true}
- class_name: Flatten
  config: {name: flatten_4, trainable: true}
- class_name: Dense
  config:
    activation: relu
    activity_regularizer: null
    bias_constraint: null
    bias_initializer:
      class_name: Zeros
      config: {}
    bias_regularizer: null
    kernel_constraint: null
    kernel_initializer:
      class_name: VarianceScaling
      config: {distribution: uniform, mode: fan_avg, scale: 1.0, seed: null}
    kernel_regularizer: null
    name: dense_6
    trainable: true
    units: 128
    use_bias: true
- class_name: Dropout
  config: {name: dropout_8, noise_shape: null, rate: 0.5, seed: null, trainable: true}
- class_name: Dense
  config:
    activation: softmax
    activity_regularizer: null
    bias_constraint: null
    bias_initializer:
      class_name: Zeros
      config: {}
    bias_regularizer: null
    kernel_constraint: null
    kernel_initializer:
      class_name: VarianceScaling
      config: {distribution: uniform, mode: fan_avg, scale: 1.0, seed: null}
    kernel_regularizer: null
    name: dense_7
    trainable: true
    units: 6
    use_bias: true
keras_version: 2.0.9
